…
I0423 23:38:57.310914 20446 net.cpp:294] The NetState phase (0) differed from the phase (1) specified by a rule in layer mnist
I0423 23:38:57.310963 20446 net.cpp:294] The NetState phase (0) differed from the phase (1) specified by a rule in layer accuracy
I0423 23:38:57.311089 20446 net.cpp:51] Initializing net from parameters: 
name: "LeNet"
state {
  phase: TRAIN
  level: 0
  stage: ""
}
layer {
  name: "mnist"
  type: "Data"
  top: "data"
  top: "label"
  include {
    phase: TRAIN
  }
  transform_param {
    scale: 0.00390625
  }
  data_param {
    source: "/home/zhangyi/MNIST/examples/mnist_train_lmdb"
    batch_size: 64
    backend: LMDB
  }
}
layer {
  name: "conv1"
  type: "Convolution"
  bottom: "data"
  top: "conv1"
  param {
    lr_mult: 1
  }
  param {
    lr_mult: 2
  }
  convolution_param {
    num_output: 20
    kernel_size: 5
    stride: 1
    weight_filler {
      type: "xavier"
    }
    bias_filler {
      type: "constant"
    }
  }
}
layer {
  name: "pool1"
  type: "Pooling"
  bottom: "conv1"
  top: "pool1"
  pooling_param {
    pool: MAX
    kernel_size: 2
    stride: 2
  }
}
layer {
  name: "conv2"
  type: "Convolution"
  bottom: "pool1"
  top: "conv2"
  param {
    lr_mult: 1
  }
  param {
    lr_mult: 2
  }
  convolution_param {
    num_output: 50
    kernel_size: 5
    stride: 1
    weight_filler {
      type: "xavier"
    }
    bias_filler {
      type: "constant"
    }
  }
}
layer {
  name: "pool2"
  type: "Pooling"
  bottom: "conv2"
  top: "pool2"
  pooling_param {
    pool: MAX
    kernel_size: 2
    stride: 2
  }
}
layer {
  name: "ip1"
  type: "InnerProduct"
  bottom: "pool2"
  top: "ip1"
  param {
    lr_mult: 1
  }
  param {
    lr_mult: 2
  }
  inner_product_param {
    num_output: 500
    weight_filler {
      type: "xavier"
    }
    bias_filler {
      type: "constant"
    }
  }
}
layer {
  name: "relu1"
  type: "ReLU"
  bottom: "ip1"
  top: "ip1"
}
layer {
  name: "ip2"
  type: "InnerProduct"
  bottom: "ip1"
  top: "ip2"
  param {
    lr_mult: 1
  }
  param {
    lr_mult: 2
  }
  inner_product_param {
    num_output: 10
    weight_filler {
      type: "xavier"
    }
    bias_filler {
      type: "constant"
    }
  }
}
layer {
  name: "loss"
  type: "SoftmaxWithLoss"
  bottom: "ip2"
  bottom: "label"
  top: "loss"
}
I0423 23:38:57.311188 20446 layer_factory.hpp:77] Creating layer mnist
I0423 23:38:57.311344 20446 db_lmdb.cpp:35] Opened lmdb /home/zhangyi/MNIST/examples/mnist_train_lmdb
I0423 23:38:57.311403 20446 net.cpp:84] Creating Layer mnist
I0423 23:38:57.311431 20446 net.cpp:380] mnist -> data
I0423 23:38:57.311473 20446 net.cpp:380] mnist -> label
I0423 23:38:57.311533 20446 data_layer.cpp:45] output data size: 64,1,28,28
I0423 23:38:57.312108 20446 net.cpp:122] Setting up mnist
I0423 23:38:57.312142 20446 net.cpp:129] Top shape: 64 1 28 28 (50176)
I0423 23:38:57.312162 20446 net.cpp:129] Top shape: 64 (64)
I0423 23:38:57.312177 20446 net.cpp:137] Memory required for data: 200960
I0423 23:38:57.312206 20446 layer_factory.hpp:77] Creating layer conv1
I0423 23:38:57.312242 20446 net.cpp:84] Creating Layer conv1
I0423 23:38:57.312264 20446 net.cpp:406] conv1 <- data
I0423 23:38:57.312289 20446 net.cpp:380] conv1 -> conv1
I0423 23:38:57.312360 20446 net.cpp:122] Setting up conv1
I0423 23:38:57.312386 20446 net.cpp:129] Top shape: 64 20 24 24 (737280)
I0423 23:38:57.312403 20446 net.cpp:137] Memory required for data: 3150080
I0423 23:38:57.312438 20446 layer_factory.hpp:77] Creating layer pool1
I0423 23:38:57.312477 20446 net.cpp:84] Creating Layer pool1
I0423 23:38:57.312495 20446 net.cpp:406] pool1 <- conv1
I0423 23:38:57.312516 20446 net.cpp:380] pool1 -> pool1
I0423 23:38:57.312546 20446 net.cpp:122] Setting up pool1
I0423 23:38:57.312574 20446 net.cpp:129] Top shape: 64 20 12 12 (184320)
I0423 23:38:57.312592 20446 net.cpp:137] Memory required for data: 3887360
I0423 23:38:57.312616 20446 layer_factory.hpp:77] Creating layer conv2
I0423 23:38:57.312638 20446 net.cpp:84] Creating Layer conv2
I0423 23:38:57.312661 20446 net.cpp:406] conv2 <- pool1
I0423 23:38:57.312682 20446 net.cpp:380] conv2 -> conv2
I0423 23:38:57.313028 20446 net.cpp:122] Setting up conv2
I0423 23:38:57.313060 20446 net.cpp:129] Top shape: 64 50 8 8 (204800)
I0423 23:38:57.313077 20446 net.cpp:137] Memory required for data: 4706560
I0423 23:38:57.313108 20446 layer_factory.hpp:77] Creating layer pool2
I0423 23:38:57.313138 20446 net.cpp:84] Creating Layer pool2
I0423 23:38:57.313154 20446 net.cpp:406] pool2 <- conv2
I0423 23:38:57.313181 20446 net.cpp:380] pool2 -> pool2
I0423 23:38:57.313208 20446 net.cpp:122] Setting up pool2
I0423 23:38:57.313230 20446 net.cpp:129] Top shape: 64 50 4 4 (51200)
I0423 23:38:57.313246 20446 net.cpp:137] Memory required for data: 4911360
I0423 23:38:57.313261 20446 layer_factory.hpp:77] Creating layer ip1
I0423 23:38:57.313280 20446 net.cpp:84] Creating Layer ip1
I0423 23:38:57.313299 20446 net.cpp:406] ip1 <- pool2
I0423 23:38:57.313319 20446 net.cpp:380] ip1 -> ip1
I0423 23:38:57.317754 20446 net.cpp:122] Setting up ip1
I0423 23:38:57.317798 20446 net.cpp:129] Top shape: 64 500 (32000)
I0423 23:38:57.317816 20446 net.cpp:137] Memory required for data: 5039360
I0423 23:38:57.317839 20446 layer_factory.hpp:77] Creating layer relu1
I0423 23:38:57.317862 20446 net.cpp:84] Creating Layer relu1
I0423 23:38:57.317878 20446 net.cpp:406] relu1 <- ip1
I0423 23:38:57.317898 20446 net.cpp:367] relu1 -> ip1 (in-place)
I0423 23:38:57.317919 20446 net.cpp:122] Setting up relu1
I0423 23:38:57.317937 20446 net.cpp:129] Top shape: 64 500 (32000)
I0423 23:38:57.317960 20446 net.cpp:137] Memory required for data: 5167360
I0423 23:38:57.317975 20446 layer_factory.hpp:77] Creating layer ip2
I0423 23:38:57.317994 20446 net.cpp:84] Creating Layer ip2
I0423 23:38:57.318011 20446 net.cpp:406] ip2 <- ip1
I0423 23:38:57.318028 20446 net.cpp:380] ip2 -> ip2
I0423 23:38:57.318105 20446 net.cpp:122] Setting up ip2
I0423 23:38:57.318125 20446 net.cpp:129] Top shape: 64 10 (640)
I0423 23:38:57.318140 20446 net.cpp:137] Memory required for data: 5169920
I0423 23:38:57.318166 20446 layer_factory.hpp:77] Creating layer loss
I0423 23:38:57.318188 20446 net.cpp:84] Creating Layer loss
I0423 23:38:57.318204 20446 net.cpp:406] loss <- ip2
I0423 23:38:57.318222 20446 net.cpp:406] loss <- label
I0423 23:38:57.318240 20446 net.cpp:380] loss -> loss
I0423 23:38:57.318269 20446 layer_factory.hpp:77] Creating layer loss
…
I0423 23:38:57.318814 20446 solver.cpp:172] Creating test net (#0) specified by net file: /home/zhangyi/MNIST/examples/lenet_train_test.prototxt
I0423 23:38:57.318871 20446 net.cpp:294] The NetState phase (1) differed from the phase (0) specified by a rule in layer mnist
I0423 23:38:57.319003 20446 net.cpp:51] Initializing net from parameters: 
name: "LeNet"
state {
  phase: TEST
}
layer {
  name: "mnist"
  type: "Data"
  top: "data"
  top: "label"
  include {
    phase: TEST
  }
  transform_param {
    scale: 0.00390625
  }
  data_param {
    source: "/home/zhangyi/MNIST/examples/mnist_test_lmdb"
    batch_size: 100
    backend: LMDB
  }
}
layer {
  name: "conv1"
  type: "Convolution"
  bottom: "data"
  top: "conv1"
  param {
    lr_mult: 1
  }
  param {
    lr_mult: 2
  }
  convolution_param {
    num_output: 20
    kernel_size: 5
    stride: 1
    weight_filler {
      type: "xavier"
    }
    bias_filler {
      type: "constant"
    }
  }
}
layer {
  name: "pool1"
  type: "Pooling"
  bottom: "conv1"
  top: "pool1"
  pooling_param {
    pool: MAX
    kernel_size: 2
    stride: 2
  }
}
layer {
  name: "conv2"
  type: "Convolution"
  bottom: "pool1"
  top: "conv2"
  param {
    lr_mult: 1
  }
  param {
    lr_mult: 2
  }
  convolution_param {
    num_output: 50
    kernel_size: 5
    stride: 1
    weight_filler {
      type: "xavier"
    }
    bias_filler {
      type: "constant"
    }
  }
}
layer {
  name: "pool2"
  type: "Pooling"
  bottom: "conv2"
  top: "pool2"
  pooling_param {
    pool: MAX
    kernel_size: 2
    stride: 2
  }
}
layer {
  name: "ip1"
  type: "InnerProduct"
  bottom: "pool2"
  top: "ip1"
  param {
    lr_mult: 1
  }
  param {
    lr_mult: 2
  }
  inner_product_param {
    num_output: 500
    weight_filler {
      type: "xavier"
    }
    bias_filler {
      type: "constant"
    }
  }
}
layer {
  name: "relu1"
  type: "ReLU"
  bottom: "ip1"
  top: "ip1"
}
layer {
  name: "ip2"
  type: "InnerProduct"
  bottom: "ip1"
  top: "ip2"
  param {
    lr_mult: 1
  }
  param {
    lr_mult: 2
  }
  inner_product_param {
    num_output: 10
    weight_filler {
      type: "xavier"
    }
    bias_filler {
      type: "constant"
    }
  }
}
layer {
  name: "accuracy"
  type: "Accuracy"
  bottom: "ip2"
  bottom: "label"
  top: "accuracy"
  include {
    phase: TEST
  }
}
layer {
  name: "loss"
  type: "SoftmaxWithLoss"
  bottom: "ip2"
  bottom: "label"
  top: "loss"
}
I0423 23:38:57.319118 20446 layer_factory.hpp:77] Creating layer mnist
I0423 23:38:57.319218 20446 db_lmdb.cpp:35] Opened lmdb /home/zhangyi/MNIST/examples/mnist_test_lmdb
I0423 23:38:57.319257 20446 net.cpp:84] Creating Layer mnist
I0423 23:38:57.319288 20446 net.cpp:380] mnist -> data
I0423 23:38:57.319314 20446 net.cpp:380] mnist -> label
I0423 23:38:57.319350 20446 data_layer.cpp:45] output data size: 100,1,28,28
I0423 23:38:57.319428 20446 net.cpp:122] Setting up mnist
I0423 23:38:57.319459 20446 net.cpp:129] Top shape: 100 1 28 28 (78400)
I0423 23:38:57.319479 20446 net.cpp:129] Top shape: 100 (100)
I0423 23:38:57.319519 20446 net.cpp:137] Memory required for data: 314000
I0423 23:38:57.319537 20446 layer_factory.hpp:77] Creating layer label_mnist_1_split
I0423 23:38:57.319566 20446 net.cpp:84] Creating Layer label_mnist_1_split
I0423 23:38:57.319586 20446 net.cpp:406] label_mnist_1_split <- label
I0423 23:38:57.319607 20446 net.cpp:380] label_mnist_1_split -> label_mnist_1_split_0
I0423 23:38:57.319638 20446 net.cpp:380] label_mnist_1_split -> label_mnist_1_split_1
I0423 23:38:57.319664 20446 net.cpp:122] Setting up label_mnist_1_split
I0423 23:38:57.319684 20446 net.cpp:129] Top shape: 100 (100)
I0423 23:38:57.319701 20446 net.cpp:129] Top shape: 100 (100)
I0423 23:38:57.319722 20446 net.cpp:137] Memory required for data: 314800
I0423 23:38:57.319739 20446 layer_factory.hpp:77] Creating layer conv1
I0423 23:38:57.319767 20446 net.cpp:84] Creating Layer conv1
I0423 23:38:57.319797 20446 net.cpp:406] conv1 <- data
I0423 23:38:57.319819 20446 net.cpp:380] conv1 -> conv1
I0423 23:38:57.319874 20446 net.cpp:122] Setting up conv1
I0423 23:38:57.319905 20446 net.cpp:129] Top shape: 100 20 24 24 (1152000)
I0423 23:38:57.319921 20446 net.cpp:137] Memory required for data: 4922800
I0423 23:38:57.319957 20446 layer_factory.hpp:77] Creating layer pool1
I0423 23:38:57.319977 20446 net.cpp:84] Creating Layer pool1
I0423 23:38:57.320001 20446 net.cpp:406] pool1 <- conv1
I0423 23:38:57.320022 20446 net.cpp:380] pool1 -> pool1
I0423 23:38:57.320046 20446 net.cpp:122] Setting up pool1
I0423 23:38:57.320066 20446 net.cpp:129] Top shape: 100 20 12 12 (288000)
I0423 23:38:57.320083 20446 net.cpp:137] Memory required for data: 6074800
I0423 23:38:57.320107 20446 layer_factory.hpp:77] Creating layer conv2
I0423 23:38:57.320138 20446 net.cpp:84] Creating Layer conv2
I0423 23:38:57.320155 20446 net.cpp:406] conv2 <- pool1
I0423 23:38:57.320178 20446 net.cpp:380] conv2 -> conv2
I0423 23:38:57.320500 20446 net.cpp:122] Setting up conv2
I0423 23:38:57.320544 20446 net.cpp:129] Top shape: 100 50 8 8 (320000)
I0423 23:38:57.320564 20446 net.cpp:137] Memory required for data: 7354800
I0423 23:38:57.320585 20446 layer_factory.hpp:77] Creating layer pool2
I0423 23:38:57.320613 20446 net.cpp:84] Creating Layer pool2
I0423 23:38:57.320636 20446 net.cpp:406] pool2 <- conv2
I0423 23:38:57.320657 20446 net.cpp:380] pool2 -> pool2
I0423 23:38:57.320683 20446 net.cpp:122] Setting up pool2
I0423 23:38:57.320703 20446 net.cpp:129] Top shape: 100 50 4 4 (80000)
I0423 23:38:57.320719 20446 net.cpp:137] Memory required for data: 7674800
I0423 23:38:57.320735 20446 layer_factory.hpp:77] Creating layer ip1
I0423 23:38:57.320756 20446 net.cpp:84] Creating Layer ip1
I0423 23:38:57.320780 20446 net.cpp:406] ip1 <- pool2
I0423 23:38:57.320806 20446 net.cpp:380] ip1 -> ip1
I0423 23:38:57.325067 20446 net.cpp:122] Setting up ip1
I0423 23:38:57.325096 20446 net.cpp:129] Top shape: 100 500 (50000)
I0423 23:38:57.325112 20446 net.cpp:137] Memory required for data: 7874800
I0423 23:38:57.325137 20446 layer_factory.hpp:77] Creating layer relu1
I0423 23:38:57.325156 20446 net.cpp:84] Creating Layer relu1
I0423 23:38:57.325171 20446 net.cpp:406] relu1 <- ip1
I0423 23:38:57.325191 20446 net.cpp:367] relu1 -> ip1 (in-place)
I0423 23:38:57.325218 20446 net.cpp:122] Setting up relu1
I0423 23:38:57.325237 20446 net.cpp:129] Top shape: 100 500 (50000)
I0423 23:38:57.325250 20446 net.cpp:137] Memory required for data: 8074800
I0423 23:38:57.325265 20446 layer_factory.hpp:77] Creating layer ip2
I0423 23:38:57.325287 20446 net.cpp:84] Creating Layer ip2
I0423 23:38:57.325304 20446 net.cpp:406] ip2 <- ip1
I0423 23:38:57.325321 20446 net.cpp:380] ip2 -> ip2
I0423 23:38:57.325399 20446 net.cpp:122] Setting up ip2
I0423 23:38:57.325425 20446 net.cpp:129] Top shape: 100 10 (1000)
I0423 23:38:57.325440 20446 net.cpp:137] Memory required for data: 8078800
I0423 23:38:57.325459 20446 layer_factory.hpp:77] Creating layer ip2_ip2_0_split
I0423 23:38:57.325479 20446 net.cpp:84] Creating Layer ip2_ip2_0_split
I0423 23:38:57.325493 20446 net.cpp:406] ip2_ip2_0_split <- ip2
I0423 23:38:57.325515 20446 net.cpp:380] ip2_ip2_0_split -> ip2_ip2_0_split_0
I0423 23:38:57.325534 20446 net.cpp:380] ip2_ip2_0_split -> ip2_ip2_0_split_1
I0423 23:38:57.325562 20446 net.cpp:122] Setting up ip2_ip2_0_split
I0423 23:38:57.325579 20446 net.cpp:129] Top shape: 100 10 (1000)
I0423 23:38:57.325594 20446 net.cpp:129] Top shape: 100 10 (1000)
I0423 23:38:57.325611 20446 net.cpp:137] Memory required for data: 8086800
I0423 23:38:57.325628 20446 layer_factory.hpp:77] Creating layer accuracy
I0423 23:38:57.325645 20446 net.cpp:84] Creating Layer accuracy
I0423 23:38:57.325660 20446 net.cpp:406] accuracy <- ip2_ip2_0_split_0
I0423 23:38:57.325683 20446 net.cpp:406] accuracy <- label_mnist_1_split_0
I0423 23:38:57.325703 20446 net.cpp:380] accuracy -> accuracy
…
